models/pretrained_dvae_models/model_mot.pt (torch, 15568 bytes, 28 tensors)

mlp_x_h.linear_0.weight f4 [4, 4]
000000 f1 87 eb 3d f3 f4 eb 3b 76 da 65 3f 61 5f 5b bb
       0.11500538 0.007200831 0.8978647 -0.0033473598
000010 76 f7 ec 3d 0f 11 1c be 3e 82 0f 3f a8 b0 00 3e
       0.11570637 -0.15240882 0.5605811 0.12567389
000020 69 34 9f be 3c aa b5 3d 62 a0 71 be c4 a2 72 bd
       -0.31094673 0.0887036 -0.23596337 -0.059237257
000030 e1 b7 17 3f ec c6 3c 3e 62 11 be 3e c9 6c 22 be
       0.5926495 0.18435258 0.37122637 -0.1586181

mlp_x_h.linear_0.bias f4 [4]
000000 dc 3a 46 be ec 3e e3 3e 51 a9 b4 be e7 af 97 3e
       -0.1935839 0.44383943 -0.35285428 0.2962639

rnn_h.weight_ih_l0 f4 [32, 4]
000000 d1 14 81 be 00 13 d4 bd 28 4c 07 bf 87 73 57 be
       -0.25211194 -0.103551865 -0.5285058 -0.21040164
000010 3a ad 3f be 57 7b c1 3e 9a b7 ab be d0 a6 1d 3f
       -0.18718424 0.37789413 -0.33538514 0.6158266
000020 6b 30 4e 3e 14 61 1e 3f 14 a6 d6 be b0 81 16 3f
       0.20135657 0.6186688 -0.41923583 0.5879164
000030 29 87 13 3f 8e 69 23 3e c0 15 d7 be f6 17 f6 3d
       0.57628113 0.15958235 -0.4200878 0.12016289
000040 51 d0 d7 be b7 96 d8 bd cc d8 d4 3e 05 3c 94 be
       -0.4215112 -0.105756216 0.41571653 -0.2895204
000050 19 b1 96 3e 51 7c d9 3e 31 00 0c bf 5e 25 d9 3d
       0.2943199 0.42477658 -0.5468779 0.1060283
000060 be 58 61 3f 0a 7e c5 3f b4 6d cb bf 08 d3 90 3f
       0.88026035 1.5429089 -1.5892854 1.1314402
000070 c7 9c fd bd b6 a1 33 3e a0 0e 59 be 02 5b 9b 3e
       -0.123834185 0.17542157 -0.21196985 0.3034287
000080 b3 53 0b bf d2 15 52 3e 3a b0 6a be be b9 28 3d
       -0.5442459 0.20516136 -0.22918788 0.041192763
000090 db fd 2b 3e ad d5 1b 3d 8b 15 aa be 93 68 0b 3f
       0.16796057 0.038045574 -0.3321956 0.5445644
0000a0 cc 0c f0 3c 5e 84 fd bd fa 57 c5 bd eb 7a d7 3e
       0.029302977 -0.12378763 -0.09635921 0.42085966
0000b0 0f 1a 6f 3f 87 92 98 3d fb a0 66 bd 23 f5 ca 3e
       0.9339914 0.07449823 -0.056305867 0.3964015
0000c0 44 40 57 bf 0f ae 08 be c9 5f 1b 3e 79 72 81 be
       -0.84082437 -0.13347648 0.15173258 -0.25282648
0000d0 49 ba 14 3f 9f 6a 2d be 9e 9e 48 3d c4 c6 c4 3d
       0.5809675 -0.16935204 0.048979394 0.09608224
0000e0 0f 9b b7 3f 6d 22 24 be fa 9d cd 3e 54 ca 0f 3d
       1.4344195 -0.16028757 0.4015959 0.035105065
0000f0 7d fd 13 3e 75 f5 4e be 73 61 e9 be 85 7e 73 3d
       0.14452167 -0.20210822 -0.4558216 0.05944683
000100 43 84 6e 3e c6 89 58 be e8 e0 b9 3e 0f 67 0f be
       0.23292641 -0.21146306 0.36304402 -0.14004157
000110 bf 38 2a bf b9 5c 1e 3e ae fc a1 3e 20 e9 9b be
       -0.6649284 0.15465058 0.31638092 -0.30451298
000120 35 89 a5 3d cc ad 8a be f4 06 f3 3e dc d9 57 be
       0.08082811 -0.27085721 0.47466242 -0.210792
000130 81 1d 46 bf 50 65 e8 bd 07 b3 4a 3e c0 89 56 3a
       -0.7738877 -0.11347449 0.19794856 0.00081839785
000140 c1 4d ea bd f3 ba 27 be a1 90 db 3b 34 ea b8 bd
       -0.11440612 -0.16379909 0.0067005907 -0.09029046
000150 96 bd b2 3e 28 90 d2 3e 2d 64 12 bf e6 ed 84 3e
       0.34910268 0.41125607 -0.57184106 0.25962752
000160 01 7d 12 bf 0b 17 b2 be df bf 46 3f dc 8f 16 bf
       -0.5722199 -0.34783205 0.7763652 -0.5881326
000170 f2 3a de be cf 74 65 be 42 82 88 3d 25 92 5c be
       -0.43404347 -0.2240784 0.0666547 -0.21540125
000180 16 37 bb 3d 0c 22 10 3f 48 bc cf be 01 8e 01 3f
       0.09141366 0.5630195 -0.40573335 0.50607306
000190 f4 16 8d 3e c9 9f 27 be ea 6f fd 3d 42 04 06 3f
       0.27556574 -0.16369547 0.123748615 0.52350247
0001a0 ae 1d fc be f1 5c 16 3f 9a 38 f3 be 42 49 5a bd
       -0.49241394 0.5873557 -0.4750412 -0.05329252
0001b0 f8 ad 39 3f e1 87 fd 3e 69 0a d5 3c a0 a5 a7 3e
       0.7253108 0.4951773 0.02600594 0.3274355
0001c0 a6 11 2a bf 82 3e f2 be e6 ed ad 3e 2f a7 09 bf
       -0.6643318 -0.47313315 0.33970565 -0.53770727
0001d0 f1 c5 7c 3f 48 72 ff 3e 7f 04 b8 be 2b 95 0d 3f
       0.98739535 0.49891877 -0.3594093 0.5530574
0001e0 5b b5 c8 bd 12 10 cb 3e d3 be 7f 3d c7 a5 f5 3d
       -0.09800216 0.39660698 0.062437844 0.1199451
0001f0 db 23 43 3e bc 85 07 3f f2 fb 92 3c 0c 96 17 3f
       0.19056647 0.5293844 0.017942403 0.5921333

rnn_h.weight_hh_l0 f4 [32, 8]
000000 90 3a 94 be 33 9e 3b 3e b3 25 8e be e7 b6 a4 bf
       -0.2895093 0.18322067 -0.27763137 -1.2868317
000010 68 96 c0 be 14 69 07 be 56 55 90 bd e0 a6 98 be
       -0.3761475 -0.13223678 -0.070475265 -0.29814816
000020 40 ec 3c be 26 1d a4 3d 10 eb f6 be dc 47 ac 3f
       -0.18449497 0.08013372 -0.48226213 1.345943
000030 d7 91 3e be 6a cc 0c 3f f8 77 b4 be be 89 74 be
       -0.18610321 0.5499941 -0.3524778 -0.2388067
000040 75 be c8 be f6 90 89 3e 49 6a 0f be c6 8e 37 bf
       -0.39207807 0.2686841 -0.14005388 -0.7170223
000050 81 cf 74 3e 6b ea a8 bc 1c 7a 37 bd 4a 88 ad bc
       0.23907281 -0.020619592 -0.044794187 -0.021183152
000060 78 9f 97 be 52 fb 03 3f 92 c1 43 be b8 8c c5 bd
       -0.29613853 0.5155536 -0.1911681 -0.096459806
000070 23 51 8f 3f 07 08 05 3d 44 3a bc be 7a 90 f7 be
       1.1196636 0.03247836 -0.36763203 -0.48352414
000080 52 ab b4 bd ce ae 92 3d 34 e5 8d be 4a 2e e5 3d
       -0.08821739 0.071622476 -0.2771393 0.111904696
000090 a6 b6 ab 3e a7 7b b4 3e 87 0d 60 3d 89 42 53 3d
       0.33537787 0.3525059 0.0547004 0.051577125
0000a0 a0 ca 99 3e 82 61 04 be 49 39 ec 3d aa b1 8f be
       0.30037403 -0.12927821 0.11534364 -0.28065234
0000b0 0c 1f 33 bf 52 89 eb 3d 10 25 bf 3e 44 fa 82 3b
       -0.6996925 0.11500801 0.37332964 0.003997119
0000c0 ab b6 20 3f bf 71 0c 3e 2f fb 42 3f 23 a2 9e bf
       0.6277873 0.13715266 0.76164526 -1.239323
0000d0 19 78 09 3e 13 96 50 bf bc cd 3b 3f 8d 7b c3 bf
       0.1342472 -0.81478995 0.733608 -1.527208
0000e0 93 d4 9f be a2 4b f6 bc 59 5e 83 be ea 0b f2 3f
       -0.3121687 -0.030065361 -0.2565792 1.8909886
0000f0 33 c9 85 3e 9a 42 e9 3e 72 b8 03 be b2 12 ba be
       0.26130065 0.45558625 -0.12863329 -0.36342388
000100 6a 4a 71 bd b6 30 59 be 5d 86 8f be 55 ff 2b bf
       -0.058908857 -0.21209988 -0.280322 -0.6718648
000110 2d 2c b0 3d b5 b0 4b 3e 98 c2 6b be c8 61 bd bd
       0.08602176 0.19891627 -0.2302345 -0.09247166
000120 39 00 2c be 62 41 b4 3d ec 60 46 3d 5e dc ae 3f
       -0.1679696 0.08801533 0.048432276 1.3661001
000130 88 ab 47 be 8a 1d 81 bd 5f fe e6 be d9 f5 05 be
       -0.19499028 -0.06304462 -0.45115945 -0.13082065
000140 9b c0 73 3d 9a 71 b1 3e f6 18 a4 bd 97 91 e3 be
       0.059509855 0.34656984 -0.080125734 -0.44447014
000150 18 0e bf 3d b9 74 46 3d e4 db 6b 3e d3 ab b2 3d
       0.0932886 0.04845116 0.230331 0.08724179
000160 d8 27 9c bd c5 92 08 be d3 84 a1 3d 03 a6 2f bf
       -0.07624787 -0.13337238 0.07886662 -0.6861269
000170 24 4b 3e be 6a 80 f5 bd 3e a1 ae 3d 83 6f 0b be
       -0.18583351 -0.11987384 0.08526848 -0.13616757
000180 2e ed 7f be d9 12 b5 3e 21 b2 5b 3e 5c cb da be
       -0.2499282 0.35365942 0.2145467 -0.42733276
000190 5f ed 86 bd e6 d6 2d be e4 70 1b be c4 d6 a4 be
       -0.06588244 -0.16976508 -0.15179783 -0.32195103
0001a0 33 d9 b3 3e af a5 09 be 27 6e 82 be 70 dc 34 bf
       0.35126647 -0.1344211 -0.25474665 -0.7064886
0001b0 e7 8f bc bd 81 2c 62 3d 21 84 a6 be 05 d2 b8 be
       -0.09207135 0.055218223 -0.3252268 -0.36097732
0001c0 90 1a 86 be 5b fc 37 3f c6 b4 1a be 64 c9 9a bf
       -0.2619214 0.7186944 -0.15108022 -1.209271
0001d0 ca ca 4b 3e c6 21 aa be ff e1 b9 bd a5 59 84 bf
       0.19901577 -0.33228892 -0.090763085 -1.0339857
0001e0 7f 5c a0 be 00 6a 2f be 9d 7e 7c bd 99 0d 16 3f
       -0.3132057 -0.1713028 -0.061644185 0.586145
0001f0 50 d3 ba be 28 30 0e be ce 4f 17 be 4e 64 5c 3d
       -0.36489344 -0.13885558 -0.14776537 0.053806596
000200 21 63 9a be 90 56 cb bb bc a0 66 3e 81 cc 81 3f
       -0.30153754 -0.0062053874 0.22522253 1.0140535
000210 62 09 9b 3e b6 02 69 3d 56 f0 1d 3d a3 8a 3b 3e
       0.30280596 0.05688735 0.03855928 0.18314604
000220 18 39 ad be 5b 93 d0 3d b0 a9 0f bf 84 e4 34 be
       -0.33832622 0.10184356 -0.561183 -0.17665297
000230 ab 6d 3e be e1 90 87 3e 74 c8 8a be 76 ba 1b 3e
       -0.18596523 0.2647772 -0.2710606 0.15207848
000240 4d 14 46 3e d3 d4 0e 3e 4a 9c a0 bd eb e7 e5 3e
       0.19343682 0.13948373 -0.0784231 0.44903502
000250 3c bf 24 bd a2 87 04 3d 05 02 4d be 4e 45 ba be
       -0.040221438 0.032355912 -0.20020302 -0.36381
000260 7d 97 a0 be a3 13 7c be c9 6c 2d be 37 52 15 be
       -0.31365576 -0.24616866 -0.1693603 -0.14582144
000270 93 35 3f bd f2 9f 93 3e 38 24 18 be 82 ca 70 3e
       -0.04668195 0.28832966 -0.14857566 0.2351475
000280 4e 2d 03 bf ac 84 0d 3b e7 28 9e be 3a 63 d4 be
       -0.51241004 0.0021593971 -0.3089058 -0.41481954
000290 d2 75 16 be 9d 6f 85 3e 75 40 4a 3e 05 8a 0c be
       -0.14693382 0.26061717 0.19751151 -0.13724525
0002a0 45 f5 92 bc ef 04 1c be 79 13 28 3e 68 a4 29 be
       -0.01793922 -0.15236257 0.16413678 -0.16566622
0002b0 0a 42 e9 be 3e ac 50 bd 6e 82 36 3c 97 88 c9 3d
       -0.45558196 -0.050945513 0.011139495 0.098405056
0002c0 3b 90 28 bf fd 53 0d bf 0e 74 2a bf af c5 7a be
       -0.6584508 -0.5520628 -0.66583335 -0.24489473
0002d0 71 77 4a be bc 12 70 3f 0a 6c 35 bf ad 04 97 3f
       -0.19772126 0.93778586 -0.7086798 1.1798302
0002e0 82 e1 8b bc b1 50 83 be 06 50 fc 3e 11 e1 a6 bf
       -0.017075304 -0.256475 0.49279803 -1.3037435
0002f0 77 01 18 3e 36 87 d6 be 71 3f ef 3e 24 c2 4c be
       0.14844309 -0.41900033 0.4672809 -0.19995934
000300 20 6b 9e be 8e d7 da 3e 00 1a 13 3c 19 04 e9 be
       -0.30941105 0.4274258 0.008978367 -0.4551094
000310 7b 85 93 3d 1f 8f 70 3e c1 42 db be 24 62 93 be
       0.07203194 0.23492096 -0.42824367 -0.28785813
000320 b8 18 2d be 01 7d 47 be d4 9f 0a be 9c df e4 3e
       -0.1690396 -0.19481279 -0.13537532 0.4470185
000330 1d 8b 0d 3e 9d 6f 17 3e 8c 4e 09 be 08 f5 63 be
       0.13822599 0.14788671 -0.1340887 -0.22261441
000340 02 0c a7 bd ec c2 46 3e bd 63 06 bf 0f e0 30 be
       -0.08156587 0.19410294 -0.5249594 -0.17272972
000350 a1 09 6c 3e ad f1 36 3e 5a 27 e9 be 93 ef 5b 3e
       0.23050548 0.1786563 -0.45537835 0.21478109
000360 dd e4 8c be 76 ef 45 3f 37 c7 d8 3e 13 83 1d bf
       -0.2751836 0.77318513 0.4233949 -0.6152813
000370 84 f9 a8 3f d3 e3 15 bf c9 65 58 bf 84 15 b1 bd
       1.3201146 -0.5855076 -0.8453031 -0.08646682
000380 17 09 29 3e 35 09 a2 3e e8 79 5f 3e 82 51 88 3d
       0.16507374 0.3164765 0.21823847 0.066561714
000390 10 d7 9f 3d cd 3f 89 3e 09 25 0f bd 7d e8 88 be
       0.07804692 0.2680649 -0.03494743 -0.26739874
0003a0 95 ba a9 bd ab 47 d6 3e 5e 5b 1e 3e f6 a0 95 bd
       -0.08287541 0.41851553 0.15464541 -0.073060915
0003b0 d5 df 88 bd 88 b2 32 be f4 e9 87 3e 1e 4e b6 be
       -0.066833176 -0.17450917 0.2654568 -0.35606474
0003c0 13 e0 83 be 84 af a4 3e f5 d1 03 bf 29 56 e7 be
       -0.25756893 0.32165158 -0.51492244 -0.45182922
0003d0 1e 6d 88 be ce 5c cb 3d 6c 63 57 bd 4e 50 5a be
       -0.2664575 0.099298105 -0.05258505 -0.21319696
0003e0 17 6a b6 be de 6a 21 bd e5 dd db bd 78 54 95 3e
       -0.35627815 -0.039408557 -0.107356824 0.29166007
0003f0 33 9d 77 3e 61 b7 ae bd 84 94 9f be ad d2 ba be
       0.2418106 -0.085310705 -0.31167996 -0.36488858

rnn_h.bias_ih_l0 f4 [32]
000000 91 24 08 3f d2 95 eb 3c 7d 42 1d 3d 39 99 91 3e
       0.53180796 0.028757963 0.038393486 0.28437212
000010 4b ba 96 3d ae 94 6c 3e 2f cc 97 3f dd 6e 2b 3f
       0.07359751 0.23103592 1.1859187 0.6696604
000020 56 b8 27 bc 9c 00 e3 3e 7f 86 2c 3e e0 37 09 bf
       -0.01023682 0.44336402 0.16848181 -0.53600883
000030 63 59 65 bb fe 31 24 bb 45 81 08 be 27 29 86 3e
       -0.0034995906 -0.0025054212 -0.13330562 0.26203272
000040 07 27 d9 be 39 bd 75 3e be 67 9b 3d 40 24 1c be
       -0.42412588 0.23997964 0.075881466 -0.15248203
000050 91 50 d2 3e b0 6c ea 3d e4 76 29 be d7 7c 67 3e
       0.41077092 0.11446512 -0.1654926 0.22606216
000060 01 b8 12 3f 8a 4d 85 3d 80 2a fb 3e fe fb 9f bd
       0.5731202 0.0650893 0.49055862 -0.078117356
000070 04 4c a1 3e 7d 79 ba 3e 05 6a b3 3e 2f 8c 25 bd
       0.31503308 0.36420813 0.35041824 -0.040416893

rnn_h.bias_hh_l0 f4 [32]
000000 f3 33 6a 3e 9e e0 5a 3d 05 f4 9a 3d 49 31 55 3d
       0.2287138 0.053436868 0.07566074 0.052048955
000010 74 84 fe bd 95 77 8b 3a dd 15 96 3f 2b 6a 9a 3e
       -0.12427607 0.0010640497 1.1725422 0.30159125
000020 09 60 60 be 3e 18 ab 3c 0e b3 59 3b a7 c3 1a be
       -0.21911635 0.020885583 0.0033218297 -0.15113698
000030 88 98 9c 3c ce d8 fc bc ea f5 e1 be 1d b4 c3 bd
       0.019115701 -0.0308651 -0.4413293 -0.09555838
000040 30 87 3b be ba f1 07 3e d2 2d ce be df b7 55 3e
       -0.18313289 0.13275805 -0.40269333 0.20870923
000050 6a d6 29 3e 56 51 55 3e 51 c9 00 be 53 ab ca 3c
       0.16585699 0.20831808 -0.12576796 0.024739897
000060 bc 7f b5 bd 5f 59 9f 3d 35 e4 4d bd 3e 44 ad 3e
       -0.08862254 0.07780718 -0.050266463 0.33841127
000070 30 26 bc 3e 1f 20 b9 3e 9e 81 8a 3b 9a 5a 80 3d
       0.36747885 0.3615732 0.0042268774 0.06267281

mlp_gz_z.linear_0.weight f4 [16, 16]
000000 f2 23 cf bd 00 67 4d be 33 19 44 3e 42 4d 26 3d
       -0.10114278 -0.20058823 0.19150238 0.040601023
000010 88 4f 66 3d 83 3b 42 3e 64 a0 5c 3d 99 cb c8 3b
       0.05622819 0.18968014 0.053863898 0.0061277864
000020 50 03 f1 be 98 e0 e3 3e 00 bd c5 3e b2 ec a8 be
       -0.4707284 0.4450729 0.38620758 -0.32993084
000030 3a 2a 24 3d ec 53 0a 3e 92 4e 2d bd ab cf 30 bd
       0.040079333 0.13508576 -0.04231126 -0.043166798
000040 70 d0 c6 bd 16 7f a4 be 1d 8a b3 3d 95 57 af 3e
       -0.09707725 -0.3212821 0.087665774 0.34246507
000050 d1 0c 8b 3e 8d a8 2c bc c3 b1 b9 3e f8 bd 36 3e
       0.27158216 -0.0105382325 0.36268434 0.17845905
000060 fe 19 63 3e 32 59 ce 3e c8 bc 21 3f d6 42 f1 be
       0.22177884 0.40302426 0.6317868 -0.47121304
000070 e1 30 88 bd db 16 1f bd f5 79 10 bd db 93 11 3e
       -0.06649948 -0.038840156 -0.035272557 0.14216559
000080 41 95 05 be fb 74 9f 3c cb df 16 be 60 e9 24 3e
       -0.13045217 0.01946496 -0.14733808 0.1610465
000090 3e 50 29 3d 32 f5 74 be 67 8f 2d 3e 00 59 3d 3d
       0.04133629 -0.2392166 0.16949235 0.046227455
0000a0 28 38 35 3e b1 98 a3 bd e5 41 d7 be 07 8a 9f 3e
       0.17697203 -0.07988108 -0.4204246 0.31159994
0000b0 a0 2e ee bd 9d 23 79 bc fc 8a f1 3c fc d6 02 3e
       -0.11629987 -0.015206245 0.029485218 0.12777323
0000c0 57 a0 62 be 8b b4 18 be e1 c4 fe 3c b9 2f 23 3f
       -0.22131477 -0.14912622 0.031099739 0.63744694
0000d0 87 01 1f be 81 ab 22 be f6 c9 8a 3b bb 01 03 3f
       -0.15527926 -0.15885736 0.0042355014 0.51174515
0000e0 e5 11 93 3e 26 ec 75 bc 7b 4b e8 be 80 45 4d bd
       0.2872459 -0.015009915 -0.45370087 -0.05011511
0000f0 11 87 1d 3a 0e 96 83 3d 48 75 ba 3c c4 31 36 be
       0.0006009201 0.06425105 0.022761002 -0.17792422
000100 98 15 67 bd b5 27 bc bd 8e f1 d9 bd ac 23 4a be
       -0.056417078 -0.09187261 -0.10641776 -0.1974017
000110 02 39 36 be a8 c2 cc bb 57 b8 4f be 97 82 93 3e
       -0.17795184 -0.006248791 -0.20285164 0.2881057
000120 cd 8e d7 be 70 bd 4f bf 44 33 e9 3e 02 91 df 3e
       -0.42101136 -0.81148434 0.45546925 0.4366532
000130 82 07 a5 3e 70 45 39 be 8f 45 ee 3c fe 5f bd bd
       0.3223229 -0.18092895 0.029085902 -0.09246825
000140 47 4c f4 bd 71 38 6a 3e 54 ba e8 3d 16 6a 3e 3d
       -0.11928611 0.22873093 0.11363664 0.04648789
000150 54 66 43 be de ee ef bd fa df d9 3d b4 5d 35 3e
       -0.19082004 -0.11715482 0.10638423 0.17711526
000160 a4 af d0 3e 13 fe e5 bc 09 0e 21 bd a8 a3 3c 3e
       0.40759003 -0.028075254 -0.039320026 0.18421805
000170 00 12 81 3e a3 cf b9 bd 76 0a 4e 3e d3 32 66 3d
       0.25209045 -0.09072807 0.20121178 0.056200814
000180 ee f6 89 3e a8 fb 96 3c cd 1f 3d 3e e1 6e 6c 3e
       0.26946205 0.018430546 0.18469162 0.23089172
000190 ab ff e2 3d 88 cd 3e 3e a2 91 01 be 5c 2a 0b be
       0.11083921 0.18633091 -0.12653211 -0.13590378
0001a0 74 12 d9 3e 9c d4 81 3d d3 32 af be 5b 64 c8 3d
       0.4239689 0.0633938 -0.34218463 0.09784766
0001b0 1e ca 61 3d 23 e3 03 3d 6d d6 f0 3c bd eb 01 3e
       0.055124395 0.032199036 0.029399121 0.12687583
0001c0 a1 92 b8 be 05 6b 80 3e a3 b5 ec 3c bf fc 4d 3f
       -0.3604937 0.2508165 0.028895205 0.80463785
0001d0 52 d8 c6 3d cd 83 8b bb f8 a9 b9 bd 64 1b 9a 3e
       0.097092286 -0.0042576552 -0.09065622 0.30099022
0001e0 99 54 cb 3e ce ca 5d 3e 84 eb b3 3d 64 cf 71 be
       0.3971298 0.21659395 0.087851554 -0.2361427
0001f0 79 bd b0 3e 3d 7f 81 3e 77 e3 18 3e 4b 8f a7 3e
       0.34519556 0.25292388 0.14930521 0.3272651
000200 df 5c 07 bd b1 c8 f8 bd 5a fa 0a be 10 ae 57 3e
       -0.033047553 -0.12147654 -0.13572064 0.21062493
000210 14 f5 72 be 12 a1 2c be 43 bb 2f be 3b 50 03 be
       -0.23726302 -0.16858318 -0.17161278 -0.12823574
000220 4c f3 cd 3e 7d be 56 be 05 ef b7 be 59 55 d2 3e
       0.40224683 -0.20971103 -0.35924545 0.4108074
000230 2c f1 ac 3d 8d 56 13 be 02 e6 e8 bc a2 b9 07 3d
       0.084444374 -0.14388485 -0.028429989 0.033136018
000240 c4 40 44 be 91 9e 56 be 9a 82 56 be da 78 e7 be
       -0.19165331 -0.20958926 -0.20948258 -0.4520939
000250 9e f4 d6 be f7 65 d5 3d 7c 38 70 3b a8 72 2d 3e
       -0.41983503 0.10419839 0.003665476 0.16938269
000260 e7 2d 06 bf 65 1d 60 3e b5 b6 ed 3d 46 73 a2 3d
       -0.5241379 0.21886213 0.11607114 0.07932143
000270 02 58 c8 ba 08 66 37 3b 08 11 d1 bc 39 31 7c bc
       -0.0015285017 0.00279844 -0.025520816 -0.015392595
000280 10 c9 67 be 6a 66 13 3e 08 26 00 be 97 d7 27 3e
       -0.22635293 0.14394537 -0.12514508 0.16390835
000290 fa 17 54 3e 70 66 7d 3e 5b f3 ec bd c4 fd c5 be
       0.20712271 0.24746108 -0.11569854 -0.3867017
0002a0 af 9d e8 3a c5 f7 3f be cf 37 c4 be a9 ea 3a be
       0.0017747189 -0.1874686 -0.3832383 -0.18253578
0002b0 14 af f2 bd d3 b8 0a be 7e 2d 8b be 99 06 8d 3e
       -0.118498 -0.13547067 -0.27183145 0.27544096
0002c0 cd c9 e6 3c a1 a9 f0 bd 14 ff 86 be f0 44 0c 3e
       0.028172398 -0.11751104 -0.26366484 0.13698173
0002d0 4e be a2 3e 5e 15 66 3e 39 d8 e8 3d 1d e3 1e be
       0.31785816 0.22469088 0.11369366 -0.15516324
0002e0 85 b6 a6 be 00 8a cd bd f3 9a 00 3f b5 f9 6d be
       -0.32561126 -0.10036087 0.50236434 -0.23239787
0002f0 b3 f2 24 bd f8 9c 09 3e b2 06 79 3d f2 d1 b4 bd
       -0.04027052 0.13438785 0.0607974 -0.088291064
000300 bc a1 bb 3e 51 02 ce bd 89 bb 5a 3e 55 88 17 bf
       0.3664683 -0.100590356 0.21360601 -0.591924
000310 85 af fe be cd 7a 3a bd 27 3b 92 be 49 2f 92 be
       -0.49743286 -0.04552727 -0.28560755 -0.285517
000320 93 5c 6a 3e 5c 16 de be 3f ee 0d bf 93 2e e4 3c
       0.22886877 -0.43376434 -0.5544166 0.02785424
000330 93 2a 1c 3e cf 53 de 3d 71 67 ad bb a3 4b 20 3e
       0.15250616 0.10855829 -0.005291872 0.15653853
000340 b2 fd 98 3e 68 f7 04 be ec 5c 12 bd 78 6e 39 be
       0.29881054 -0.12985003 -0.03573315 -0.18108547
000350 ea 94 b4 be a2 cb af 3a 58 14 19 bd 67 0a 84 be
       -0.35269862 0.0013412128 -0.037372917 -0.25789186
000360 a0 7f 7c 3e e0 c8 1f be ad 32 e0 be 8f 5a 93 3e
       0.2465806 -0.15603971 -0.43788663 0.28780028
000370 72 d3 04 3e d0 a7 5b 3e 58 3a 02 3e 81 84 b1 3d
       0.12971285 0.21450734 0.12717569 0.08667851
000380 4b c9 ca 3e 62 82 89 bd e0 12 0f 3f 05 aa e3 3c
       0.396067 -0.06714322 0.55888176 0.027791033
000390 d1 6b 90 be 16 c5 82 be be 1b 8e 3e bd 9f 00 3f
       -0.28207257 -0.2554099 0.2775554 0.5024374
0003a0 8e c4 20 3e 97 3b 6f be 8d de 26 3f 4f 0f 93 3e
       0.1569998 -0.23362575 0.65183336 0.28722617
0003b0 3e b3 6c 3f a0 0d b0 be 68 44 e6 3e 23 04 be bc
       0.92461 -0.34385395 0.44974065 -0.023195332
0003c0 bf 49 48 bd 5f 63 93 3a 7c cc f2 3d 05 6c 06 3e
       -0.048898455 0.0011244825 0.118554085 0.13127144
0003d0 ab 48 82 b9 73 42 fe 3c 3e 7b 76 be b8 e1 2e be
       -0.00024849674 0.031037545 -0.2407045 -0.17078292
0003e0 fa e4 fd bb 0d 28 5f 3e ff a2 8d be 2f 46 24 bf
       -0.0077482434 0.21792622 -0.2766342 -0.6416959
0003f0 e9 41 c1 be cb 1a c3 bc e9 97 fa 3d a0 e6 5e bd
       -0.37745598 -0.023816487 0.12236006 -0.05441916

mlp_gz_z.linear_0.bias f4 [16]
000000 71 26 57 3e 37 c9 9e 3e ab 64 b0 3d 9f 88 3b 3e
       0.21010758 0.3101289 0.08612951 0.18313836
000010 5a 5e b9 b8 5a ff 93 3d df 3c 3b 3e 54 83 cc 3e
       -8.839062e-05 0.07226439 0.18284939 0.39943945
000020 1c 32 1c be a4 00 01 3e 54 46 f6 bd 41 e4 dd 3d
       -0.1525349 0.125979 -0.12025133 0.108345516
000030 17 59 4c be d7 ea 97 be fe 5f 82 bd 63 80 5f 3e
       -0.1995586 -0.29671356 -0.06365965 0.2182632

mlp_gz_z.linear_1.weight f4 [8, 16]
000000 5d f6 bb 3d 4f 62 f2 bf 84 c4 8f be 04 5a 93 be
       0.091778494 -1.8936251 -0.28079617 -0.28779614
000010 23 83 94 be c6 e0 15 bf 6f 17 8a 3e a4 38 5a 3d
       -0.290063 -0.585461 0.26971003 0.053276673
000020 49 38 eb be df 52 2b bd fe 9d ec 3e 5b b8 18 3f
       -0.4594138 -0.04182708 0.46214288 0.59656304
000030 11 cc ca 3d d6 20 88 3e ae 45 6f bf 78 14 75 3e
       0.09902204 0.26587552 -0.934657 0.2393359
000040 a6 0b 2a be 51 5d ea bd 15 b4 fd 3c 94 fa b8 bc
       -0.16606006 -0.1144358 0.030969659 -0.022580422
000050 11 cd bf 3e e5 68 46 3d 3c 59 03 3e ce 67 a0 3d
       0.3746114 0.04843988 0.12827009 0.07832299
000060 b3 c5 68 be 8e c1 9f be 3b 71 48 3e b6 80 75 3e
       -0.22731666 -0.31202358 0.19574444 0.2397488
000070 af 65 9c be 1a a6 b2 be 04 dd a3 3d b2 2b 1e 3c
       -0.30546328 -0.3489235 0.0800114 0.009653972
000080 6e 38 5a 3f b3 97 09 3f e2 91 1a be 10 8f 96 3d
       0.85242355 0.537471 -0.15094712 0.07351506
000090 e1 f5 ab bd 4e 65 30 3c 0e 13 82 bd 8c d7 e7 3e
       -0.08396507 0.01076634 -0.06351291 0.45281637
0000a0 4c 37 33 bf 2a fa 48 3e 82 4b 06 3e f4 c0 31 3e
       -0.7000625 0.1962668 0.13114741 0.17358762
0000b0 08 ca c8 be 12 58 11 bf f6 c8 7c be 08 1c b2 3e
       -0.39216638 -0.5677501 -0.24686036 0.3478701
0000c0 40 13 e4 be e0 82 bc 3e fd dc d6 3c 2b 9c 74 3e
       -0.44545937 0.368186 0.026228422 0.23887698
0000d0 05 6d a4 3d 67 d0 18 3e ed c6 61 3e 40 5c 8a 3d
       0.08028606 0.14923249 0.2204854 0.067558765
0000e0 bd 5a 68 3d f3 f9 e7 be 78 66 67 3e 9a c1 e4 bd
       0.05672716 -0.45307884 0.22597682 -0.11169739
0000f0 c8 77 8c 3e 5d ba ca 3e 38 09 75 be 23 0a 11 3e
       0.27435136 0.3959531 -0.23929298 0.14164023
000100 55 f2 40 bf d3 8a 01 be d6 84 5d bd 33 e9 9a 3d
       -0.7536977 -0.12650613 -0.05408176 0.075640105
000110 ff f7 40 3e fb a7 32 3e ee e4 21 3d 2f 2f 37 be
       0.18844603 0.17446892 0.039524965 -0.17889093
000120 03 07 fa 3e bd 38 74 3e 1d ac bf 3d 89 bc 9d be
       0.48833475 0.23849769 0.09359 -0.30807903
000130 ea b8 de 3e de c2 31 3f f6 d7 0a bc c6 6e 27 be
       0.43500453 0.6943797 -0.008474341 -0.1635085
000140 ba cc 99 3e 08 23 9b be 77 b5 db be 08 dc 82 bd
       0.30039006 -0.30300164 -0.42911884 -0.06389624
000150 16 fa 8c 3e 67 11 f4 be c4 1b ec be b3 7e 95 be
       0.2753455 -0.47669527 -0.46114933 -0.29198226
000160 25 9e e8 be fc f9 0a 3e 5d 3e 40 bd 28 5d 92 bd
       -0.45433155 0.13571924 -0.046934474 -0.071466744
000170 cf 5e 23 bd a1 e9 e4 3c 89 2d dc 3d 75 99 e9 bd
       -0.03988534 0.027943434 0.10750873 -0.11406223
000180 5f ba da be 40 77 ed be d0 cd 1d bf 09 41 04 3f
       -0.42720315 -0.46380043 -0.6164217 0.51661736
000190 6c d1 bd 3e 00 ed 4c 3e 3f 97 72 be 7e 4a dd be
       0.3707384 0.20012283 -0.23690508 -0.43220896
0001a0 1a 58 a1 bc 3c 50 47 3f 20 f5 92 bc e4 53 18 bf
       -0.01969533 0.778568 -0.01793915 -0.59503007
0001b0 83 99 7b bd 97 ad 2c bd 35 95 a1 3e 25 02 75 3e
       -0.061425697 -0.042157736 0.31559148 0.239266
0001c0 ce 36 f8 be 20 4e f4 3e 79 d3 56 3e 1f 8f 32 3e
       -0.48479313 0.47715855 0.20979108 0.17437409
0001d0 a0 2e 9e be 88 60 be 3e 91 77 c3 3e 9a 79 8b 3d
       -0.30894947 0.37183022 0.3817716 0.06810303
0001e0 27 6d ef 3e 72 de b7 be 95 94 35 3e a2 39 98 be
       0.46762964 -0.359119 0.17732461 -0.2973147
0001f0 0b f6 55 3c 43 3b 38 bc 29 6b 16 be 72 38 f6 3c
       0.0130591495 -0.011244598 -0.14689316 0.030056212

mlp_gz_z.linear_1.bias f4 [8]
000000 cb 52 b1 3e 12 88 1b bd d4 17 0f 3f fc 8c ea 3d
       0.3463348 -0.037971564 0.55895734 0.11452672
000010 c1 0f a4 3d 90 3f 5a bd b9 2e f3 be fc e7 04 3e
       0.08010817 -0.053283274 -0.47496584 0.1297912

inf_z_mean.weight f4 [4, 8]
000000 ea 69 80 3e 11 96 9c bd ef f0 2c bf 07 ac 04 3e
       0.25080806 -0.076458104 -0.67555135 0.12956248
000010 30 08 9c 3e a9 64 8b be b9 a0 40 be 22 fa 6a 3d
       0.30474997 -0.27225235 -0.18811311 0.05736745
000020 c1 64 26 3e 43 35 e5 bd 55 06 09 bf 2b 9c 17 3e
       0.16249372 -0.111917995 -0.53525287 0.14805667
000030 ee 3a 30 3e 01 23 9a be 61 e7 a0 be fd e1 d7 3d
       0.1720998 -0.3010483 -0.31426528 0.10541151
000040 0d 27 52 3e 32 9d 74 3f a1 10 0f be 5f 66 05 40
       0.20522709 0.9555236 -0.13971187 2.0843732
000050 f5 57 ba 3e 79 f8 39 3d 8f 7a 76 be 01 17 38 bd
       0.3639523 0.045402978 -0.2407019 -0.044943813
000060 23 85 fe 3d 85 7c db be 85 be ea be 60 8e 22 3f
       0.124277376 -0.42868438 -0.4584848 0.63498497
000070 f9 66 4b 3f 4d 8b 1d bf ee 31 c6 3d 87 ad 2c 3f
       0.79454 -0.6154068 0.09677492 0.6745228

inf_z_mean.bias f4 [4]
000000 d9 3a 2a 3e 45 db c4 3c ac 36 02 be 82 13 c1 3e
       0.16624011 0.024030337 -0.12716168 0.37710196

inf_z_logvar.weight f4 [4, 8]
000000 bb ad 41 c0 6e 0b 83 c0 ce 1c 65 bf fa 90 30 3e
       -3.0262287 -4.095145 -0.8949708 0.17242804
000010 e7 b9 80 3f 55 07 33 40 9d 22 da 3f 59 c6 fd bf
       1.0056733 2.7973225 1.7041813 -1.9826156
000020 43 61 29 c0 ae a6 80 c0 1a 43 9f bf 7f b6 43 bd
       -2.6465614 -4.0203466 -1.2442353 -0.047781464
000030 0a 5c 67 3f 14 c6 54 40 25 4d 00 40 8d b0 22 c0
       0.90374815 3.3245897 2.0047085 -2.5420258
000040 68 f7 10 c0 99 b5 1a c0 c8 8b e7 bf 98 0b c9 bf
       -2.2651005 -2.4173338 -1.8089533 -1.5706663
000050 18 64 f4 3f af f9 20 40 dc 6c ec 3f ce 59 df bf
       1.9093046 2.5152395 1.8470721 -1.7449281
000060 b3 3f e7 bf 3c 9a 65 c0 e9 16 c1 bf 76 5c 9b 3d
       -1.8066314 -3.5875387 -1.5085117 0.07585995
000070 d6 00 8a 3f ba 80 6b 40 f5 e1 02 40 fa bf 2d c0
       1.0781505 3.6797318 2.0450413 -2.7148423

inf_z_logvar.bias f4 [4]
000000 fe 8a a0 bf ce b3 9b bf 10 a4 e2 bf b0 72 bd bf
       -1.2542417 -1.2164247 -1.7706318 -1.4800625

mlp_hz_z.linear_0.weight f4 [8, 12]
000000 2b ac 3b be be 88 a1 3e ab 91 79 be 56 08 b0 3f
       -0.18327396 0.31549639 -0.24371974 1.3752544
000010 4a f8 01 3e 31 39 98 3c cf 7a 45 be 69 87 84 bf
       0.12692371 0.018581958 -0.19285129 -1.0353824
000020 db 0e 9a be 01 6b 16 be b7 eb ca 3c 68 f4 e8 be
       -0.3008946 -0.14689256 0.0247706 -0.45498967
000030 ab 70 07 be 96 a1 f2 3d c3 24 66 3e fc 9c 8a bf
       -0.13226573 0.11847226 0.22474961 -1.0829158
000040 95 ec 77 3d 97 11 b6 3e 80 56 17 be 8a 2c 5a 3d
       0.060528357 0.35560295 -0.14779091 0.053265132
000050 fe 23 41 bb a1 7d be 3d 56 74 76 bd a1 65 67 be
       -0.0029470916 0.093013056 -0.06016954 -0.22597362
000060 bf 57 44 3d ff a1 0e be 22 3c 1f bc 70 3f d1 3e
       0.047935244 -0.13928984 -0.009718927 0.4086871
000070 aa 67 4e 3f f6 e3 ea 3c 1c d5 2e 3e ab 2b 2a be
       0.8062693 0.028673153 0.17073482 -0.1661822
000080 f2 37 f3 3b 7c 47 d5 3c 49 73 c0 bd 6d 27 bd be
       0.0074224407 0.026035063 -0.09396989 -0.36944142
000090 68 97 2a 3c ad 3f 17 be 10 ca d0 3e 51 88 bb be
       0.010412075 -0.14770384 0.4077916 -0.3662744
0000a0 cb 3a 50 3e 12 1c 26 3e cd ef 6c 3e 01 e7 63 3d
       0.20334928 0.16221645 0.23138352 0.055640224
0000b0 42 e4 92 bd 65 46 02 3e 85 b8 d2 be 49 93 61 be
       -0.07172443 0.12722166 -0.41156402 -0.22028841
0000c0 60 63 7b be 2f 26 92 3e a8 39 00 3e 8c 85 52 be
       -0.24549627 0.28544757 0.12521994 -0.20558757
0000d0 67 1c df 3e 73 3e 04 bd db 6f 2c be d4 11 14 bd
       0.43576357 -0.03228612 -0.16839544 -0.036149815
0000e0 ee ad 3d be 09 7a e6 bd e5 fe f4 bd 8b ce 42 be
       -0.1852338 -0.11253745 -0.1196268 -0.19024102
0000f0 bf 35 64 3d 3b 5d af 3d e9 e9 59 be 76 b7 09 be
       0.05571532 0.08562704 -0.21280636 -0.13448891
000100 7a 85 ad 3d 87 c9 eb bd 56 dd b9 bd 2f 68 2b be
       0.08472724 -0.11513048 -0.090754196 -0.16738962
000110 ea 9a 1e 3e ff 0b 10 3f 51 3b 29 bf 24 71 70 3e
       0.15488783 0.56268305 -0.66106135 0.2348066
000120 6e 18 4c be b5 69 4c 3f f6 2a 60 bf 5c ed ee 3f
       -0.19931194 0.79848796 -0.87565553 1.8666186
000130 63 86 f5 3e 3e ce a8 3e 59 ea af be ce 1c 6f bf
       0.4795409 0.3296985 -0.3435848 -0.9340333
000140 16 02 3f bf 78 da 4d 3d 1c 10 0f bf a0 38 87 be
       -0.7461256 0.050257176 -0.55883956 -0.2641039
000150 bc 56 26 3e 20 61 d1 3d 2a 91 9b 3d 78 46 2a be
       0.16244024 0.10223603 0.07596047 -0.16628444
000160 c9 19 87 bd f2 86 b0 3d f8 a0 80 3e 72 ca 28 3d
       -0.06596715 0.08619489 0.2512281 0.041208692
000170 84 36 8a bd b1 73 82 bd 20 6c 84 3e b3 f2 0e bf
       -0.06748679 -0.06369723 0.25863743 -0.5583908

mlp_hz_z.linear_0.bias f4 [8]
000000 ab d4 88 be 15 97 ad 3e 06 7c 24 3e 66 34 88 3e
       -0.26724753 0.3390433 0.16062936 0.26602477
000010 c6 67 a0 3e 3d b1 02 be b7 37 90 be 08 9e 8e bd
       0.31329173 -0.12762924 -0.28167507 -0.06963736

mlp_hz_z.linear_1.weight f4 [8, 8]
000000 74 46 86 3d 43 ea 9e 3e 50 9d be 3e 3d f3 85 be
       0.065564066 0.31038103 0.37229395 -0.2616214
000010 34 ca 1a 3f df ba c1 bb d0 c1 51 be f7 18 d6 3e
       0.6046479 -0.0059121693 -0.2048409 0.41815922
000020 0a da aa 3d ed 43 09 bf 5e 84 11 bf 5e d6 6c be
       0.08342369 -0.5361927 -0.568426 -0.2312865
000030 e7 db 18 bf 70 ad c9 3e d7 ce 4d be 49 89 8d 3e
       -0.59710544 0.39390135 -0.20098434 0.27643803
000040 1d fa 0f bf c0 ba a6 bc 6a 95 24 3e 9f 5f f5 3e
       -0.5624102 -0.020352721 0.16072622 0.47924516
000050 21 22 28 be 01 7c 02 3e 87 2e 61 be f9 63 19 be
       -0.16419269 0.12742616 -0.21990405 -0.14979543
000060 87 7d f6 3e d6 1f 4f be 10 c2 8c bd 68 ea 28 bf
       0.48142645 -0.20226988 -0.06872952 -0.65982676
000070 60 e1 b1 3e 65 62 f2 3e 9f 64 a0 3e 9c 28 13 be
       0.3474226 0.47340694 0.31326768 -0.1437096
000080 a1 53 92 be c9 22 d4 3e 94 f0 20 3f 93 7f 94 3e
       -0.2857943 0.4143279 0.62867093 0.2900358
000090 28 c1 92 3e 44 a1 a4 3e 08 5d 7a be d4 13 19 bd
       0.28662992 0.32154286 -0.24449551 -0.037372425
0000a0 e7 4e 8a be a2 a4 d1 3e 65 57 14 3f 75 80 c2 3f
       -0.27013323 0.40945917 0.57945853 1.5195452
0000b0 05 96 c1 be 46 ce 56 3f d5 18 15 bf e9 89 9d 3f
       -0.37809768 0.839085 -0.58241016 1.2307712
0000c0 09 f5 39 3e 6c f1 ce be 9a 18 32 bf 91 7d f0 3d
       0.1815988 -0.40418565 -0.6956879 0.117427
0000d0 16 42 e3 be 5c 9e a1 3e 94 78 d8 3e ac 2a 99 be
       -0.44386357 0.3156613 0.42279494 -0.2991537
0000e0 62 6e 03 bf 79 99 00 3f 1c 69 b4 3e e1 d1 74 3f
       -0.51340306 0.5023418 0.35236442 0.9563275
0000f0 65 c2 a2 3d ee cd 05 bf 57 4d d1 be 8d 14 21 3f
       0.07947234 -0.5226735 -0.40879318 0.62921983

mlp_hz_z.linear_1.bias f4 [8]
000000 07 22 df bd 0a ed 83 be e3 07 91 bd bc f6 76 3d
       -0.10895162 -0.25766784 -0.070815824 0.060293898
000010 b1 83 71 bc 46 34 1e bf 0d 0f 6d 3e cc c4 df bd
       -0.01474087 -0.6179851 0.23150273 -0.10926208

prior_z_mean.weight f4 [4, 8]
000000 5f e5 8c be 02 44 31 3f 96 fe 2d be 96 7f 22 3f
       -0.27518746 0.69244397 -0.16991648 0.6347593
000010 d6 db 14 be 45 55 2d bd a8 47 04 3e f2 63 45 3d
       -0.14536986 -0.042317647 0.1291796 0.04819102
000020 55 25 96 be c6 cd 14 3f 52 f9 16 be 7e 1e 9f 3e
       -0.29325357 0.58126485 -0.14743546 0.3107795
000030 2a b7 b0 bd b9 ec cb bc 01 06 ad 3d 84 d0 dc bd
       -0.08628686 -0.024893152 0.08448411 -0.10781959
000040 1c 9b ca 3e 5b 05 99 3e bc 53 6a be 17 4a 57 3e
       0.39571464 0.29886898 -0.22883505 0.21024357
000050 69 3d 06 c0 11 ef 92 be 90 8b 53 be 7b 3a 13 3e
       -2.0974982 -0.28698018 -0.20658708 0.14377777
000060 b1 16 7b bf 4d 61 27 3f 6a 79 11 3c 7e e1 83 3e
       -0.980815 0.65382844 0.008879045 0.25757974
000070 42 38 1d bf 89 77 37 be 47 00 10 3f 58 81 9e be
       -0.6141397 -0.17916693 0.56250423 -0.30958056

prior_z_mean.bias f4 [4]
000000 26 b6 36 bd fd dc 42 3e 4c 9f 4c 3d 39 b2 ab 3e
       -0.044607304 0.19029613 0.049956605 0.3353441

prior_z_logvar.weight f4 [4, 8]
000000 e4 6c 14 c0 49 a6 c3 3f 21 7f 48 40 8f df 13 c0
       -2.3191462 1.5285121 3.1327593 -2.31052
000010 53 9d 22 3e c4 4f a4 3f c8 dd 8e bc 87 38 ee 3f
       0.15880327 1.2836843 -0.017439738 1.8611001
000020 0b 59 cf bf be 97 aa 3f b9 15 17 40 65 40 11 c0
       -1.6199049 1.3327558 2.3607008 -2.2695553
000030 a2 8d c2 3e 0c f9 06 40 58 b9 02 bf 27 0d de 3f
       0.37998682 2.1089506 -0.5106406 1.7347764
000040 d8 6d 30 c0 4d 75 10 3f ba 57 42 40 c9 56 32 c0
       -2.7567043 0.56428987 3.0366044 -2.786547
000050 a6 a9 08 3f 6d c9 f9 3f 4c 7d aa 3f b4 48 43 40
       0.5338386 1.9514595 1.3319488 3.0513124
000060 2e 67 2a c0 0e e6 bc 3f e7 99 cd 3f 58 5b 2b c0
       -2.6625476 1.4757707 1.6062592 -2.6774502
000070 d8 a7 1a 3f 2c d0 12 40 66 1b 58 bf 2b f9 1a 40
       0.6041236 2.2939558 -0.84416807 2.421458

prior_z_logvar.bias f4 [4]
000000 5f 23 01 c0 2a 27 42 c0 61 ab 27 bf b7 08 c3 bf
       -2.0177839 -3.0336404 -0.6549588 -1.5237035

mlp_hz_x.linear_0.weight f4 [16, 12]
000000 a7 5c 3c 3e c1 67 c2 3e e2 20 69 be 79 b1 26 3e
       0.18394719 0.37969783 -0.2276645 0.16278638
000010 87 ce 39 bb 6b 11 78 3a b8 60 b3 bd a6 68 d4 bc
       -0.002835186 0.00094630447 -0.08758682 -0.025928807
000020 13 52 8b 3e 14 0f 35 3e 66 bc 35 bf 3a 2d 0d 3f
       0.27211055 0.17681533 -0.709906 0.55147135
000030 2a 03 69 bd 7f c6 a1 3e 3d f1 00 bf 04 da 9b 3c
       -0.056887783 0.31596753 -0.503681 0.019024856
000040 76 04 8b bc f3 51 2d 37 d1 4f b3 be f4 14 45 3d
       -0.0169699 1.0330684e-05 -0.35021833 0.048115686
000050 56 5f 8d 3d f7 d5 85 3e cd 9e 9e bd d9 00 75 3e
       0.069029495 0.26139805 -0.077451326 0.23926105
000060 d6 ec d5 be c6 32 00 bd 91 27 7f be 3b a0 f3 bd
       -0.41782254 -0.03129842 -0.24917437 -0.11895796
000070 f3 bf 90 3e 13 dc 2d 3e 4e 87 4a be 4c fb 97 bc
       0.28271446 0.16978483 -0.19778177 -0.018552445
000080 31 af e6 3d 61 8f a9 3d 4f e5 b1 bc 27 29 b3 3e
       0.11263884 0.082793005 -0.021715788 0.34992334
000090 da fe 5f be 1b 15 37 be 80 5c 97 3e 3c 2c 62 3f
       -0.21874562 -0.17879145 0.2956276 0.88348746
0000a0 f0 7a 91 3e b1 b0 a1 be 23 7c 3b 3e bf 85 9f 3e
       0.28414106 -0.31580117 0.18309073 0.31156728
0000b0 ed 1f 52 bc b5 e7 0b 3d f0 83 da 3c ae 06 bd 3d
       -0.0128249945 0.03415652 0.02667424 0.0922979
0000c0 ce e2 8c be 8e c6 d6 bd 5a 8a 99 bc e7 f9 6c 3f
       -0.27516788 -0.1048709 -0.018742729 0.9256882
0000d0 77 3f 57 3e 6c 47 53 be ab cd b4 bd 18 44 81 be
       0.21020304 -0.20632714 -0.088282906 -0.25247264
0000e0 c3 30 a3 bc 3f ce 3a 3d 9a 09 a3 3c 14 f6 99 3d
       -0.019920712 0.045606848 0.01990204 0.07517639
0000f0 f8 ef de 3e 97 6f ac be bd 90 af bd 74 e4 80 3e
       0.43542457 -0.33678886 -0.085725285 0.25174296
000100 b9 08 f2 3d 01 e0 c7 be 55 1a b8 3e a9 03 f6 3e
       0.1181807 -0.3903809 0.3595759 0.48049667
000110 5a 5e f1 3d a1 55 66 be 2e 5d 4f 3d 18 25 a5 3d
       0.11785574 -0.22493602 0.050625972 0.08063716
000120 bf 81 28 be 3d 88 59 3c 63 81 49 3e a1 54 41 3f
       -0.16455744 0.013277111 0.19678263 0.7551976
000130 9c 03 be 3e 42 fe 70 bd 5c e0 82 3d 2a 6f 4a 3d
       0.3711213 -0.05883623 0.063904494 0.04942242
000140 d8 1b aa bd e2 69 11 bd 33 6d 88 bd 5c e0 e0 bc
       -0.08306092 -0.03550137 -0.06661453 -0.027450733
000150 8d d3 64 3e df ec fb 3c ca ec 9c 3e 7a fd 67 bf
       0.22346325 0.030752597 0.30649406 -0.9062115
000160 22 d1 67 be 0c 54 e6 3d 86 4b ef 3e 0e 8e 84 3e
       -0.22638372 0.112464994 0.46737307 0.2588963
000170 7b 0b f7 be 3a ea a6 be 64 80 bf be 3a 61 82 be
       -0.48250946 -0.32600576 -0.37402642 -0.25464803
000180 9f c3 8e 3e 0d 4e db be ec 05 d9 3c fe 83 f4 be
       0.27883622 -0.42832986 0.026492082 -0.47756952
000190 dd 5c 09 bf 66 71 a9 bd a4 1d fa 3e bc 7c 3a 3f
       -0.53657323 -0.08273582 0.4885074 0.7284658
0001a0 52 9d 34 bf 50 30 9c 3d dc 30 de be 71 c9 7b bc
       -0.7055255 0.076264024 -0.43396652 -0.015367852
0001b0 6c 67 9c 3e 1c cd 14 bd 59 fd 94 3e ad 85 51 be
       0.30547655 -0.03632842 0.2909954 -0.2046115
0001c0 dc b2 93 be 89 1a c9 be 40 a5 b6 3d 26 1e f1 3e
       -0.28847396 -0.39278057 0.08918238 0.47093314
0001d0 ca 8f de bd da c2 cb be 8b 54 5e be 1b 45 a5 be
       -0.10867269 -0.39797097 -0.21711938 -0.32279286
0001e0 09 6c 98 3d 68 1e 66 3b 55 c4 5a be d3 78 67 3f
       0.07442481 0.0035113338 -0.21363957 0.9041874
0001f0 af 40 05 3f 89 12 ab bd 88 7e 8c bd 09 91 a0 3d
       0.52051824 -0.08353145 -0.068600714 0.07840163
000200 e2 ed b0 3d a2 95 b3 3b c7 c8 78 3c 59 11 65 bd
       0.086391225 0.005480484 0.015184588 -0.055924747
000210 d0 87 7a be bf 35 ed 3e ea 74 af be 30 4e a4 3e
       -0.24465871 0.46330068 -0.34268886 0.32090902
000220 24 40 63 3d 85 fb 4d be 77 cc 83 be 35 49 9c be
       0.05548109 -0.20115478 -0.25741932 -0.30524603
000230 8f cc 9d 3e f9 99 32 3e 88 79 91 3e 3f 6f 27 bc
       0.30820128 0.17441548 0.28413033 -0.010219394
000240 d6 d8 8e be b4 47 3b 3e 80 41 ef be e1 c9 9a be
       -0.27899808 0.18289071 -0.4672966 -0.30232146
000250 08 bf 30 3e 7d e6 08 3e c7 9a 3d be cc f4 c8 be
       0.17260373 0.13369174 -0.18516074 -0.39249265
000260 88 8c 91 3e 5e 63 b9 bc 0b b2 04 3e 1b 41 8b 3e
       0.2842753 -0.02263039 0.12958543 0.2719811
000270 94 51 92 be 09 c7 cf 3e b0 7d c4 bd 42 af 94 3d
       -0.28577864 0.4058154 -0.095942855 0.0725999
000280 56 38 d3 3e 82 da a9 bd 49 70 f1 be b9 49 9d bd
       0.41253918 -0.0829363 -0.4715598 -0.07680077
000290 dd 2f 92 3e 1e 8d 96 3e ee b5 4b bd b2 aa 8a bd
       0.28552142 0.2940454 -0.04973405 -0.06770839
0002a0 df 1d 97 3e 15 05 a4 be 11 4e b1 3e 75 eb ed 3e
       0.29514977 -0.32035127 0.34629872 0.46468702
0002b0 4c 9a a1 be c7 8d 9c be 49 9b 97 3e 83 be 80 bc
       -0.31563032 -0.30576918 0.2961066 -0.015715843
0002c0 d8 bd e0 bd f3 c5 b4 bd 59 98 33 bd 61 db 5b be
       -0.1097371 -0.08826818 -0.043846462 -0.21470405
0002d0 ca 81 ad be f6 92 3e 3e 41 bb d2 be d7 58 18 3f
       -0.33888084 0.18610749 -0.41158488 0.5951056
0002e0 5f 7b 36 3d 7f 67 62 3e 5e 68 5c 3a 96 ca b3 be
       0.04455125 0.22109793 0.0008407886 -0.35115498
0002f0 dd 96 9e bd e1 80 ae 3e 7e 9a b2 3e a5 03 a2 3e
       -0.07743619 0.34082702 0.34883493 0.31643406

mlp_hz_x.linear_0.bias f4 [16]
000000 1a 68 0d 3d fe a6 d4 3e 51 79 a1 3e a3 bf 8c be
       0.034523107 0.41533655 0.3153787 -0.27489957
000010 50 01 b8 3c 4c 53 23 be fa c3 32 ba 80 55 a9 be
       0.022461563 -0.15949744 -0.0006819364 -0.33073044
000020 92 67 a2 3e 15 39 6f be b9 6b 91 be 23 7c c6 3d
       0.31719643 -0.23361619 -0.28402498 0.09691646
000030 c5 a1 91 3e b5 f9 4c 3e 8b 4e e6 bd 99 26 5e be
       0.28443733 0.2001713 -0.1124545 -0.21694411

gen_x_mean.weight f4 [4, 16]
000000 82 8f 11 3d b2 04 ff bd 7c d3 5f 3e 16 47 8e be
       0.03553725 -0.124520674 0.21858019 -0.2778861
000010 e9 08 3a be 32 9e 31 be 18 14 25 bf 90 f4 6e 3d
       -0.18167461 -0.17345503 -0.64483786 0.0583387
000020 4e 38 1c bd 57 26 55 3d 63 b5 10 bf 21 af 07 be
       -0.038139634 0.052038517 -0.56526774 -0.132504
000030 5c 5f 2b 3e 89 41 91 bd ee 37 06 3e 3a eb 17 3e
       0.16735595 -0.07092578 0.13107273 0.14835826
000040 bd bf 97 3f d4 32 a3 3e f5 5e 52 bd 0e 5a 2b be
       1.1855389 0.31874716 -0.05136009 -0.16733572
000050 d0 d7 32 be 71 9b ea bd 2e 8a 2e 3f bf 6a 23 3c
       -0.17465138 -0.11455429 0.68179595 0.009974181
000060 df 9d 5a bd 1d 7c 33 3d 33 b3 8c be 1b c6 c9 bd
       -0.053373214 0.043819536 -0.27480468 -0.09852239
000070 d9 a1 5d 3e 73 da e1 3e b0 9a 27 be ef 77 10 bf
       0.21643771 0.44111976 -0.16367602 -0.56433004
000080 40 45 57 3c 97 31 ee bd d9 71 29 be 96 c3 c2 be
       0.013139069 -0.11630552 -0.16547336 -0.38039845
000090 8c 61 ad be ba 14 5f be f8 81 ba be 59 f8 f6 3c
       -0.33863485 -0.2178525 -0.36427283 0.030147718
0000a0 f3 e5 85 3d 6b 30 ff bd f7 4b 0b bf 62 f6 00 3e
       0.06538 -0.12460407 -0.5441279 0.12593988
0000b0 33 77 7d bc 31 38 8a 3c 6d fb 9b be 19 df 61 bd
       -0.015470314 0.016872497 -0.3046526 -0.055144403
0000c0 ce f8 ae 3f c1 32 fd 3e 27 7a ce 3e 23 0e 1d 3f
       1.3669679 0.49452785 0.4032757 0.61349696
0000d0 c4 67 35 3d d2 fd 58 3e e3 13 a5 be 87 0f 89 be
       0.04428841 0.21190575 -0.32241735 -0.2676966
0000e0 8c a1 ec 3e 50 9a 1b be 15 76 a8 be 8e 3c 34 bd
       0.46217 -0.15195584 -0.3290259 -0.044003062
0000f0 b1 ed 0d 3e b5 ea d7 3d 13 7c bf 3d 28 1e 57 3e
       0.13860203 0.10542814 0.09349837 0.21007597

gen_x_mean.bias f4 [4]
000000 c0 25 b3 3d 11 55 85 be c9 ec d9 bd 12 83 4d bb
       0.087474346 -0.26041463 -0.10640866 -0.0031358642

gen_x_logvar.weight f4 [4, 16]
000000 ba df b6 bf 40 dd b2 bf 71 75 ad bf 39 41 a6 3e
       -1.4287026 -1.397377 -1.3551465 0.32471636
000010 c2 92 b3 bf 86 c4 7b 3f 49 fb 86 bf 38 4d 79 3f
       -1.4029162 0.98346746 -1.0545436 0.9738345
000020 1c fc 8e 3f db d2 92 3f b6 58 9e bd 79 11 a2 bf
       1.1170688 1.1470598 -0.07731764 -1.2661582
000030 7e 24 98 bf 7a 7f 75 bf 23 c5 67 3f 85 c5 b8 bf
       -1.1886137 -0.9589764 0.9053518 -1.4435278
000040 95 1d ba bd 1e f3 61 bf 94 86 a2 bf 49 5c d0 3e
       -0.090876736 -0.8826159 -1.269732 0.40695408
000050 9a f1 72 bf 78 3f 18 3f 1f c7 8c bf 43 85 d6 3f
       -0.94899905 0.59471846 -1.0998267 1.6759418
000060 29 22 20 3e 49 9f 95 3f c5 df 88 3e 87 e6 36 bf
       0.15638031 1.1689235 0.26733223 -0.71445507
000070 16 cc 38 bf 24 2c 85 bf ce b3 32 3f 79 d2 b6 bf
       -0.7218641 -1.0404096 0.6980561 -1.4282981
000080 a1 aa 28 bf 87 9c 55 bf 99 7c 62 bf eb cb 99 3f
       -0.6588536 -0.83441967 -0.8847137 1.2015356
000090 1a 46 a2 bf 55 4a 8a 3f 91 5b 22 c0 ea ce 9f 3f
       -1.2677643 1.0803934 -2.5368388 1.248502
0000a0 07 27 cb 3f f9 84 ab 3f 18 85 e3 be 31 47 b1 bf
       1.5871285 1.3399955 -0.4443748 -1.3849851
0000b0 3f db 6d bf d1 03 b1 bf ca e3 93 3f b4 83 a5 bf
       -0.9291267 -1.382929 1.1553891 -1.2930818
0000c0 53 46 c8 bf bd 31 68 bf 26 18 a0 bf c5 4a 34 be
       -1.5646461 -0.90700895 -1.250737 -0.17606647
0000d0 75 b1 97 bf 47 36 b8 3e c3 d6 84 3d 94 1d c7 3f
       -1.185103 0.3597891 0.06486275 1.5555902
0000e0 31 bc 01 3d 5e 5b 92 3f 31 f1 ed be ce 44 32 bf
       0.031673614 1.1434133 -0.46473077 -0.6963624
0000f0 33 de 71 bf d0 92 45 bf 1e f0 24 3f fb e9 d9 bf
       -0.94479674 -0.77177143 0.6442889 -1.702453

gen_x_logvar.bias f4 [4]
000000 41 c2 8f bf 5a e5 6a bf 70 92 80 bf 78 80 32 bf
       -1.1231157 -0.9175621 -1.0044689 -0.6972728
